output/test_es25_20230303-16-07-32.pth (torch, 10741 bytes, 6 tensors)

relation_embedding f4 [1, 25, 25]
000000 e4 9b c8 bc 49 20 61 3d b1 8a 0c 3d 3f 42 9b 3d
       -0.024488397 0.05496243 0.034311954 0.07580995
000010 98 ef bf 3d 08 7e d9 3d a0 91 dc 3c d6 80 80 bd
       0.09371871 0.10619742 0.026924908 -0.062745735
000020 7c 26 85 bd 72 ee 8a bc 4a 3c 4d 3c 26 ba 24 3c
       -0.06501481 -0.016959403 0.012526581 0.010054147
000030 86 b4 ba bd 43 ec e1 3c 46 16 88 bc 4b 31 fc 3a
       -0.09116463 0.027578479 -0.016612183 0.0019240765
000040 ba 6c f3 3d 21 b2 47 be 69 09 18 bd f5 81 1c 3d
       0.11885972 -0.19501545 -0.03711835 0.038209874
000050 29 d5 b9 3d bf 19 1a be 0c 9a 32 be bf 07 cd bd
       0.0907386 -0.15048884 -0.17441577 -0.10011243
000060 12 0c ef 3c e9 ab e8 bd 4c 37 e7 3b e9 c3 0a 3e
       0.02918056 -0.11360914 0.0070561524 0.13551296
000070 96 e7 33 be ea a0 cf bc ef 2f 40 be ac f4 6c 3d
       -0.17568812 -0.025345284 -0.18768285 0.057850525
000080 5f b8 0d be 80 3e fb bc d5 07 1e 3e f2 fb 28 3e
       -0.13839863 -0.03066945 0.15432675 0.1650236
000090 14 f8 fd bc fd 38 a5 3c 19 bf 34 3e c8 87 6b 3d
       -0.031002082 0.020168776 0.17651023 0.057502538
0000a0 4f 45 35 be e9 40 d9 3d b7 03 f4 bc ac 8b 26 be
       -0.1770222 0.10608084 -0.029786928 -0.16264218
0000b0 46 ed 17 be cf 79 1c be c6 8d 0f 3e 4f f3 10 3e
       -0.14836606 -0.15280841 0.14018926 0.14155315
0000c0 2f 21 82 3d da 90 ad 3c ce 6e 08 3e 57 67 0f bd
       0.063539855 0.021187235 0.13323519 -0.035010662
0000d0 82 84 2b be b9 15 1d 3c 5e e0 b2 bd 53 61 18 be
       -0.16749766 0.009587699 -0.08734201 -0.14880876
0000e0 3d f3 16 3e ce 15 ab 3d 0f 52 74 3c 3d a4 20 3e
       0.14741226 0.08353768 0.014912142 0.15687652
0000f0 6c 18 ab 3d 73 e7 03 be 3b 9a dd 3d f6 fe 06 be
       0.083542675 -0.1288126 0.10820433 -0.13183197
000100 bf a8 a4 bd b4 15 52 be 04 21 ca bc f8 d6 94 bc
       -0.08039998 -0.20516092 -0.024673946 -0.018168911
000110 91 68 be 3d f5 a6 15 3d 34 78 c8 bc 8f a2 1a 3e
       0.09297288 0.036536176 -0.02447138 0.15101074
000120 82 8e 52 3e bb 0d 13 bd a9 ad d0 3b 0c 8d 10 3e
       0.20562175 -0.035901766 0.006368358 0.14116305
000130 02 19 87 bc c8 6c 8e 3d ae 2c c5 3b c2 7b 80 3c
       -0.016491417 0.06954342 0.006017289 0.015684012
000140 de 21 18 bb 97 ad f0 3c 7e 02 81 bd f9 f6 a0 3d
       -0.0023213546 0.02937965 -0.062993035 0.07859606
000150 8d b3 cf 3d fb 19 9b bd 24 77 9b 3c 05 05 03 3e
       0.101416685 -0.07573315 0.01897771 0.12794884
000160 38 02 29 be fe d3 15 be 68 1f 38 3d ae 4d 0c 3d
       -0.16504753 -0.1463165 0.044951826 0.03425377
000170 a6 c9 b4 bc 5d 0e a7 3b a5 38 f5 3d 37 5a c3 bc
       -0.02206881 0.005098148 0.11973695 -0.023846729
000180 aa cc ae bc 3c ea 0a be 32 8a 34 be a2 99 9c 3d
       -0.021337826 -0.13565916 -0.17630842 0.07646491
000190 30 8b cc bd 2e 63 39 bd aa e1 5e bd 7b d5 b3 3c
       -0.099874854 -0.0452606 -0.05441443 0.021952381
0001a0 c9 6c 4b 3e df a5 19 be 40 12 51 bb 97 50 08 3d
       0.19865717 -0.15004681 -0.0031901747 0.03327998
0001b0 b6 7a b6 3d 22 a9 3a bd 96 ac 59 3d af c2 8b bd
       0.08910124 -0.045571454 0.053143106 -0.06824242
0001c0 a7 2e 43 be df 75 4b 3e 1e 1e 8f 3d b8 29 9d 3d
       -0.19060765 0.19869183 0.06988166 0.07673973
0001d0 78 5f 2c 3d e1 85 5a 3d 0b a0 25 be 09 ac 15 be
       0.042083234 0.053350333 -0.16174333 -0.14616407
0001e0 a7 83 ae 3c f2 b1 df bc c8 0c cd 3b ff b6 8d 3d
       0.021303011 -0.02730653 0.006257627 0.06919669
0001f0 fc e7 a9 bb 9f e2 3a bd 85 80 af 3c c2 aa 6d bd
       -0.0051851254 -0.04562628 0.021423588 -0.058024175
000200 b0 f5 64 bd e9 f7 59 be 61 67 5e 3e b6 0b 80 bd
       -0.05589837 -0.21285976 0.21719123 -0.06252234
000210 15 05 89 bd ac 46 c1 3d b1 99 79 bd fd 5b b2 bc
       -0.066904224 0.09437308 -0.060937587 -0.021772379
000220 61 0d c1 bc 40 af 47 3e fe 65 0f be 40 66 60 3b
       -0.02356595 0.19500446 -0.1400375 0.0034240633
000230 3e 2f ec 3b 0e 51 95 3c 1c 4c 25 be bf ed c1 3b
       0.00720778 0.018227126 -0.16142315 0.005918234
000240 01 66 7b bc 57 ac ab 3d fd a6 8f bd 1d e6 22 3c
       -0.015344144 0.083824806 -0.07014272 0.009942559
000250 74 1e 8f bc 35 4f ef 3c 02 90 c4 bd 88 05 36 3e
       -0.017470576 0.029212574 -0.0959778 0.17775548
000260 7d d2 97 bd 12 5d 72 3d 55 19 b2 3d 33 84 84 bd
       -0.07413194 0.05917079 0.08696238 -0.064705275
000270 24 b4 ee bd ba c0 11 be f0 73 4b bd 8d 36 ff bd
       -0.11655453 -0.14233676 -0.049671113 -0.124615766
000280 f9 33 69 3d b4 f1 32 3e b2 79 26 be b5 a5 97 3c
       0.05693433 0.17475015 -0.1625736 0.018511632
000290 b8 4f 41 3d da b1 eb 3d 68 2c 13 3e d6 c8 83 3c
       0.047195166 0.11508532 0.14372408 0.016086977
0002a0 78 63 36 be 09 0f ee bd c3 15 b8 3c 15 77 a2 bd
       -0.17811382 -0.116239615 0.022471314 -0.07932869
0002b0 00 55 05 3d c0 c2 b0 bc f2 ce a3 bd 8f 4d 73 3d
       0.032551765 -0.021577239 -0.07998456 0.059400138
0002c0 8d bd cf bd c1 14 e4 3d 9c 3c 3b 3d 9d 92 18 3d
       -0.10143576 0.11136771 0.0457121 0.037249196
0002d0 a4 66 bf 3d 87 aa e4 bd 96 62 b3 3d 37 f5 9a bd
       0.09345749 -0.11165338 0.08759038 -0.07566302
0002e0 05 e9 a7 bd 65 09 ac bd ae 25 fc 3d 72 6f 1f 3e
       -0.08198742 -0.08400229 0.12311874 0.15569857
0002f0 8d 8a 23 be 4e 6d f1 bc 4e 2c fc 3c a0 db c6 3d
       -0.15970822 -0.029471066 0.030782845 0.09709859
000300 10 75 c1 3b ae b3 e3 3d 01 87 10 3d 12 c7 e6 3d
       0.0059038475 0.111182556 0.035285 0.112684384
000310 93 30 16 bc bb be d8 3c 48 3e c6 bd 7a 05 13 be
       -0.009166854 0.026458135 -0.09679848 -0.14357558
000320 18 2a 8d 3d 03 e2 d4 bd e7 54 94 bd b2 23 b6 3d
       0.06892794 -0.10394671 -0.07242756 0.08893527
000330 bd 77 d4 3c fa 0d f8 3d f0 9a 2f bd 6e 90 14 be
       0.025936002 0.12112041 -0.04287237 -0.1450822
000340 e2 3f bb bd fa 1b 90 3d 04 c0 08 be fa 2b 5e 3d
       -0.09143044 0.07036586 -0.13354498 0.054241158
000350 10 f7 a7 3c 0a ae b2 3b 71 e8 a6 3d 0c b1 66 bc
       0.02050355 0.005452876 0.081498034 -0.014080297
000360 23 53 60 bc da 36 70 ba 05 35 ea 3d 84 d6 91 3c
       -0.013691696 -0.0009163447 0.11435894 0.017802484
000370 f2 7e 0c bc 0c 7c f9 3c 7a 43 23 bc 11 7c 50 3c
       -0.008575188 0.030454658 -0.009964818 0.012724892
000380 41 06 eb bc ec 3b b4 3c e2 16 21 3e cc cd 98 bc
       -0.028689506 0.02200123 0.15731385 -0.01865282
000390 cb e4 c9 3d 56 38 0c be c5 0b b2 3c 97 1d 44 be
       0.09858092 -0.13693365 0.021734128 -0.19151913
0003a0 37 73 c6 3d 75 40 bc bd f5 bb b8 3c 85 d2 d9 bd
       0.09689944 -0.09191982 0.022550562 -0.106358565
0003b0 25 6e 14 3d 55 f6 60 bd bd 13 e2 bd 66 1a 0c bd
       0.036237855 -0.05492242 -0.11038921 -0.034204863
0003c0 bb 3a cb bb ee e3 ad 3d 27 a0 62 bd 5c 37 19 3c
       -0.0062020696 0.0849074 -0.055328514 0.009351578
0003d0 60 ec 07 3e 1f 0a 7e bb 64 3f 48 3d 35 db d1 bd
       0.13273764 -0.0038763357 0.04888858 -0.102468885
0003e0 bd 93 c6 bd 1a 3e d3 3d 2a 79 f2 3d 5a 70 40 bc
       -0.096961476 0.10314579 0.118395165 -0.011745537
0003f0 85 9c b6 3c f0 95 e9 bd d2 f2 8b bd 1d f3 66 bd
       0.022291431 -0.114055514 -0.06833424 -0.056384195

entity_embedding.weight f4 [5, 25]
000000 e1 ba b0 bf 31 4d ac 3e 22 05 9a bf 62 cd 6e be
       -1.3807031 0.33652642 -1.2032816 -0.23320535
000010 ec db 43 3e a2 ae b5 3e 15 d0 9d 3f 9d e1 dd be
       0.19126862 0.35484797 1.2329127 -0.43336192
000020 25 75 b9 bf 81 a9 87 bd 36 88 c4 3f 16 dd 87 be
       -1.4488875 -0.06624127 1.5354068 -0.26535863
000030 c1 9d 4d bf fd 0c 4d 3d 62 ca b6 3d ac a3 e0 be
       -0.8031884 0.050061215 0.0892532 -0.43874872
000040 1b 52 c0 3e d3 24 7d be b2 d5 df 3e 7c 3e 82 be
       0.37562642 -0.24721079 0.43717724 -0.25438297
000050 e9 c1 0e 3f 49 81 8c bd 95 82 d8 bf 8a 27 97 3f
       0.55764633 -0.06860597 -1.691485 1.1808941
000060 f1 c7 46 3f c0 30 18 bf b5 b1 d1 3e b1 0c ca bf
       0.77648836 -0.59449387 0.40955892 -1.5785123
000070 96 00 02 bf ad 4a 83 3f 28 eb 50 bf 40 d4 c2 3f
       -0.50782144 1.0257164 -0.8160882 1.5221024
000080 f4 ac 0c 40 ab d4 b4 3f 89 56 a1 bf 52 23 db be
       2.1980562 1.4127401 -1.2604533 -0.42800385
000090 70 e8 13 3f 54 f5 84 bf 8d 0a be 3e 37 f2 98 3f
       0.57776546 -1.0387368 0.37117425 1.1948918
0000a0 c3 21 a1 3f 0a 64 09 be 37 3b 96 bf 84 ef 1b 40
       1.2588428 -0.13417068 -1.1736821 2.4364939
0000b0 4b 59 8c bf e7 ee dc 3f 73 3c ab bf d8 3e 99 bf
       -1.096475 1.7260407 -1.3377823 -1.1972303
0000c0 cb 6d 79 3e dc 21 ed 3f 30 3e 12 c0 2f 2c 75 bd
       0.24358289 1.8525958 -2.2850456 -0.05985659
0000d0 c8 8d 89 bf 9c df bf bf 94 51 b4 3e f2 7c 4f bf
       -1.0746393 -1.4990115 0.3521849 -0.81050026
0000e0 a6 1d 9f bf 2f 10 c2 be 62 33 0c 3f c8 c2 10 c0
       -1.2430923 -0.37902972 0.54765904 -2.2618885
0000f0 1e 81 86 3f 4e 5e e4 3f f6 40 1e 3f f3 54 e2 bf
       1.0508153 1.784128 0.6181787 -1.7682174
000100 eb 37 e2 be 57 38 e0 be c5 36 94 bf e0 ea dc 3f
       -0.44183287 -0.43792984 -1.1579214 1.7259178
000110 23 27 25 be 65 0d 0e 3f 49 3f 87 3f 44 57 99 3f
       -0.1612821 0.5548919 1.0566188 1.1979756
000120 02 03 b2 be 69 d6 92 3e 0e 17 c3 be b8 86 ef bd
       -0.3476792 0.28679207 -0.38103527 -0.116956174
000130 2e cd 2c 3e bc 15 c0 3f 45 74 39 3f 87 0d a3 3d
       0.16875145 1.5006633 0.7244304 0.079615645
000140 83 bd 8a 3d 68 98 d2 3e f8 60 23 be 4c 6b 7c 3f
       0.06774428 0.41131902 -0.1595496 0.9860122
000150 04 fd a7 3e c5 08 89 bf 38 62 f4 3e e8 df 02 40
       0.32810223 -1.0705801 0.47731185 2.0449162
000160 d8 f7 af bf 0e 19 a8 3f 29 24 ab bf ff c5 bb bf
       -1.3747511 1.3132646 -1.337041 -1.4669799
000170 13 e5 b8 3f 6a 19 c2 bd 11 25 00 3f 29 be 91 bd
       1.4444908 -0.094775036 0.5005656 -0.07116348
000180 ed d4 b4 3f f6 51 8a bf 27 b3 1a bf e9 2b 1d 40
       1.412748 -1.0806262 -0.60429615 2.455805
000190 7b 8f 3c bf 5e 3f 66 bf 79 1a 08 3d e7 2f 0f 40
       -0.73656434 -0.8994044 0.03322837 2.2372987
0001a0 9e e5 fb 3f d2 59 45 bf df 7a bf bd 6c b4 0b c0
       1.9679449 -0.7709018 -0.09349608 -2.182887
0001b0 9b 52 50 3f 5e 1d 7b 3f b9 87 e1 be 3b 4b 90 3e
       0.81376046 0.98091686 -0.4404886 0.28182396
0001c0 bb 22 2e bf 01 40 2d c0 d3 8f b6 3c 9b da 8f bf
       -0.68021744 -2.7070315 0.022285378 -1.1238588
0001d0 10 ce e7 bf 34 a5 fb bd 92 9c b1 bf 55 3d 05 3f
       -1.810976 -0.12287369 -1.3875906 0.5204671
0001e0 b5 49 d8 3e e2 0e a0 3f 77 85 f0 bf d3 a3 db 3f
       0.42243734 1.2504542 -1.879073 1.715937
0001f0 7a 1e 32 3c
       0.010871524

conv.basis f4 [1, 25, 25]
000000 dd 04 66 be ec 59 6e 3e ee b5 e0 3d 15 ad 4e 3e
       -0.22462793 0.2327649 0.109722 0.20183213
000010 46 4c 13 3e 3a 38 61 bd 45 3f 8b 3d dc 38 80 bd
       0.14384565 -0.054985262 0.06799177 -0.06260845
000020 fc 5d 6e be e0 9d 87 3d 23 a1 c2 3d 41 da 39 bd
       -0.2327804 0.06621909 0.09503391 -0.04537416
000030 9e 64 8a be 9c 75 8d 3d fb 4f a7 bd 69 a4 16 bd
       -0.2702989 0.06907198 -0.08169552 -0.036777887
000040 2e b6 82 be 98 bc ef bd b2 29 90 3d d2 e1 c6 3c
       -0.25529617 -0.11705893 0.07039203 0.024277601
000050 be 7f 4f bc 49 02 1e bd 7a 20 ba 3d 5c 97 a7 bd
       -0.012664733 -0.038576398 0.09088226 -0.081831664
000060 01 e1 64 3e 3e d8 a4 bd 97 c9 00 be 62 c0 52 3c
       0.22351457 -0.080490574 -0.125769 0.01286325
000070 37 88 31 3d a9 16 11 be cd 34 0a bc 84 50 3e be
       0.043342795 -0.141688 -0.00843544 -0.18585402
000080 a6 e5 11 3d 24 ff 21 be c0 22 29 be 5e 4c 15 be
       0.0356194 -0.15819985 -0.16517162 -0.14579913
000090 63 03 e2 bd de 00 b2 3c 7f 3c 6b bd ac 71 5c bd
       -0.11035802 0.02172893 -0.05743074 -0.053819343
0000a0 36 89 48 3e 53 7f 47 3e 0e c3 bf 3d 35 ee b6 3b
       0.19583592 0.19482164 0.093633756 0.0055825957
0000b0 cd 75 26 be c2 3b 50 3d 16 e0 26 be 4f b9 c9 bd
       -0.16255875 0.05083824 -0.1629642 -0.09849798
0000c0 4d 71 09 be 2d 1e da 3d 8a d1 0a be f7 9d b6 3d
       -0.13422127 0.10650287 -0.13556495 0.08916848
0000d0 dd 94 dd bc 48 e1 4b be ec 17 12 be 42 b5 6b 3d
       -0.027048523 -0.19910157 -0.14266938 0.057545908
0000e0 1a fb d3 3a 8e f8 07 be 6b 19 6f bd d9 99 0c be
       0.0016172857 -0.1327841 -0.05837385 -0.13730563
0000f0 60 b8 60 be 7e c6 f1 bd 76 2a 84 bd 47 9c d1 bd
       -0.21945333 -0.118054375 -0.06453411 -0.10234886
000100 c5 96 6c 3d 84 af 7b be 4e 71 e7 bd 3d 3e c2 bd
       0.057760973 -0.24578673 -0.11300908 -0.09484527
000110 3d 28 c3 bd 50 94 67 bc e8 0d f5 3b 46 fa 0d 3d
       -0.09529159 -0.014134482 0.0074784644 0.034662507
000120 ea 26 99 bd db 16 7c bd 6e c9 12 3e bd 18 21 3c
       -0.074781254 -0.061545234 0.14334652 0.009832558
000130 e7 ed 6e 3d 11 be 32 3e 63 bc 2f bc 32 f9 80 3e
       0.05833235 0.17455317 -0.010726067 0.2519012
000140 40 d3 9c 3c 64 1f 17 3e 92 68 a4 3d 0b 56 84 be
       0.0191437 0.14758068 0.08027758 -0.25846896
000150 98 77 cc bd ff 74 03 be c6 b7 60 3c ed 55 15 bd
       -0.09983748 -0.12837599 0.01371569 -0.0364589
000160 fb 09 de bd 8d 4f 6c 3e 92 71 9f bd f2 e0 08 bd
       -0.108417474 0.23077221 -0.07785334 -0.03341765
000170 1e 64 18 3e e7 a7 39 be 5f 24 16 be 23 88 06 be
       0.14881942 -0.18130456 -0.14662312 -0.1313787
000180 c4 76 0c 3e c1 7c 3d bd 52 4f 07 be eb 9a a5 3d
       0.1371718 -0.046261553 -0.13213852 0.08086189
000190 0b 84 15 3e ed e9 45 3d 3b 8b 20 3e d1 45 1c be
       0.14601152 0.048318792 0.15678112 -0.15261008
0001a0 f5 0f 9c 3d 66 98 53 bd 47 8f de bb 06 54 5c 3b
       0.07620231 -0.05165901 -0.0067919823 0.0033619418
0001b0 01 d8 3f be df 67 0f 3e 2e d6 a8 3c 06 f9 dd bd
       -0.18734743 0.14004467 0.020609941 -0.10838513
0001c0 2b 02 75 bd 04 08 4b be 31 e2 f1 bd 30 05 dd bd
       -0.05981652 -0.19827276 -0.11810721 -0.10792005
0001d0 1f 8f ee 3c 43 0c 07 be d6 bc 02 3e 62 5f 6d 3e
       0.02912098 -0.13188271 0.12767348 0.23180917
0001e0 a2 85 38 bd 60 98 32 bd 6c 5f 3a 3e 4d 2c f5 3b
       -0.045049317 -0.043602347 0.18200463 0.0074820877
0001f0 2d 78 0a 3e 0d be 17 3d 76 da 32 3e 59 8d dc 3d
       0.13522406 0.03704648 0.17466149 0.107691474
000200 9b 30 bb 3d 3b e6 20 be 78 90 51 be 19 12 c1 bd
       0.0914013 -0.15712826 -0.20465267 -0.0942728
000210 31 39 dc bd 6e f1 72 3d 0c df 5f 3c fe db d0 bd
       -0.10753096 0.059312277 0.013664018 -0.1019821
000220 63 b2 df bb ef f8 19 be 7f 47 e4 bd 28 dc 6f 3e
       -0.0068266853 -0.15036367 -0.11146449 0.23423827
000230 fc ac 03 be a8 d1 30 be d3 d8 59 bd c2 e7 0f 3e
       -0.12858957 -0.17267478 -0.053185295 0.14053252
000240 30 c5 e6 bb 5c a2 7f be e3 16 3d bd df 6c 6f 3d
       -0.0070425496 -0.24964279 -0.046164405 0.058453437
000250 54 8c 98 3e 2f 17 14 3e 36 3b 02 3e c2 a3 68 be
       0.29794562 0.14461969 0.127179 -0.22718719
000260 cf d3 b4 bd 72 af f8 bd cd 67 2f be d4 cf 31 be
       -0.08829462 -0.121428385 -0.1712944 -0.17364436
000270 9e 76 13 3c 9c 18 94 3d c3 b7 dc bd e1 fd 6b be
       0.0090004485 0.07231256 -0.10777237 -0.23046066
000280 1f d0 3d be 05 89 60 3e 61 2e 0a bd ea 3c 57 be
       -0.18536423 0.21927269 -0.033735637 -0.2101933
000290 c0 fa 2e be 81 91 6f 3e 3f 73 d4 3d 94 0d d4 bd
       -0.17087841 0.23395349 0.10373544 -0.10354152
0002a0 fc 4c b7 bb b8 60 49 3e 87 74 62 3d e6 0b a2 bd
       -0.005593894 0.19665802 0.05528691 -0.07912426
0002b0 23 de 2d be b8 b1 d5 bc e0 33 2b 3e 44 7f 83 3d
       -0.1697927 -0.02608572 0.16719007 0.06420758
0002c0 77 b9 08 3e 36 d1 4b bd 2f de 76 3d fa 29 62 bd
       0.13351999 -0.049760066 0.060270485 -0.055215813
0002d0 4a 22 a5 bd 98 56 81 bd 96 31 c7 bd 8e 76 cb bd
       -0.08063181 -0.063153446 -0.09726255 -0.09934722
0002e0 ba e2 44 be 8c bc 84 3a a8 d1 54 be 12 ec 8c 3d
       -0.19227114 0.0010126992 -0.20783103 0.06880964
0002f0 be 3a 96 3d d9 52 81 be aa d1 0e be 43 5c 12 be
       0.07335423 -0.2525852 -0.13947168 -0.14293008
000300 fe e6 a6 3d 68 bc e0 bd 32 eb c3 bb c1 31 48 3e
       0.08149527 -0.10973436 -0.005978965 0.1955023
000310 d8 7e 52 bd 21 85 41 be 74 60 b0 3d c8 c7 5c 3e
       -0.0513905 -0.18898441 0.08612147 0.21560585
000320 9a 9b 8d 3d 82 d9 8e bd a0 f4 a1 3d 48 18 14 be
       0.06914444 -0.0697508 0.07907987 -0.14462388
000330 17 8d cb 3d 67 0b 2c 3e 67 82 b0 3d 7b ec da bd
       0.0993902 0.16801225 0.08618622 -0.10689636
000340 9c db de 3d bb 95 c2 bd 38 d7 58 be 96 12 c3 3d
       0.10881731 -0.09501215 -0.2117585 0.09525029
000350 41 7b 73 bd 41 03 35 be 1c 24 37 be bb 6a 60 be
       -0.059443716 -0.17677023 -0.17884868 -0.21915714
000360 2a 16 1f be ef 2e 04 be 51 8f 28 bd 6b a1 19 3d
       -0.15535799 -0.12908529 -0.041152302 0.037507456
000370 a3 a8 dd 3d 12 a5 71 be 6f ad 05 be f9 e1 18 bd
       0.108231805 -0.23598126 -0.13054441 -0.03732488
000380 07 7e f3 3d 87 f7 c2 bd 9d a0 20 3e c7 a5 25 bd
       0.11889272 -0.09519868 0.15686269 -0.0404413
000390 ad da b6 bc 1f a2 84 bd d9 53 30 be 60 0a 27 3e
       -0.02232107 -0.06476235 -0.17219485 0.16312551
0003a0 8b 83 de 3d 47 8f 93 3c 7a 10 b6 bd df 67 dc bd
       0.108649336 0.018012656 -0.088898614 -0.10761999
0003b0 65 53 a7 3d fe 8d 51 be 9a 14 38 bc 98 8a dd 3d
       0.08170203 -0.20464322 -0.011235381 0.1081745
0003c0 21 f4 7f bc ea f6 30 bc 6f 2a 06 3e 17 71 69 be
       -0.01562217 -0.010801056 0.13102125 -0.22797047
0003d0 82 6e 16 be 02 a7 48 be 52 9f d2 bd 72 db df bd
       -0.14690593 -0.19594958 -0.10284294 -0.10930528
0003e0 14 d8 33 3e fc da 06 3e 6c db cd 3c c2 5f e6 bd
       0.17562896 0.13169473 0.025129043 -0.11248733
0003f0 d6 d8 88 3e 16 2c 65 3e f0 6a 1f bd d7 63 c4 3d
       0.26727933 0.22380099 -0.038920343 0.095893554

conv.att f4 [4, 1]
000000 89 ee 1d 3c a0 20 ac bc 5e dd 66 be 58 a7 76 be
       0.009639391 -0.02101165 -0.22545382 -0.24087274

conv.root f4 [25, 25]
000000 75 18 a5 bd f0 10 48 be a0 95 a5 3d e0 9f 9a 3d
       -0.080613054 -0.19537711 0.08085179 0.07550025
000010 7e a1 b8 3d 8c 65 44 3e 99 f0 b8 3d 04 3c 02 be
       0.09015177 0.19179362 0.09030265 -0.12718207
000020 ea 47 41 3e 9d ed 5c 3e 02 1d 7f 3d 78 e4 09 be
       0.1887509 0.21575017 0.062283523 -0.1346606
000030 ac ee 87 3e af 94 09 bd ff da 28 be e0 98 6f be
       0.2654928 -0.03358906 -0.1648979 -0.23398161
000040 d7 81 dd bd 9c a8 99 bd 46 ff 70 3e 57 88 0b 3d
       -0.108157806 -0.07502863 0.23534879 0.03406557
000050 f0 89 4d bd 1e 1c 21 bc 55 54 96 bc 5a 37 f1 bd
       -0.050180376 -0.009833364 -0.01835076 -0.117781356
000060 8d 48 07 be 1c ac b5 3c 4c e8 05 3e 1e 7a 82 3d
       -0.1321127 0.022176795 0.13076895 0.06370948
000070 c6 57 bb 3c 17 2d 45 be cf 3f 43 be be f6 56 3e
       0.022869002 -0.19255482 -0.1906731 0.20992562
000080 ba 8d 2c 3e 12 01 a0 bd ed 8c d6 3d 83 f5 66 bd
       0.1685094 -0.07812704 0.10476098 -0.056386482
000090 7e 30 3a bd 6f 80 ed bc f5 60 53 3e 87 88 3f be
       -0.045456402 -0.028991906 0.20642455 -0.18704425
0000a0 c6 54 c5 bd ba 6d 31 be 9f 98 31 bc c0 c7 5b be
       -0.0963531 -0.17327014 -0.01083961 -0.21462917
0000b0 27 c0 32 3e 39 0b 74 3d cf 83 14 3e 48 26 07 3c
       0.17456113 0.059581015 0.14503406 0.008248873
0000c0 f0 fb 96 3c 07 54 77 3d ee 76 b3 3c f8 f5 b1 bd
       0.01843068 0.06038287 0.021907296 -0.08689493
0000d0 5a 37 07 3e fb 55 93 be 9d cf da bd 8d d7 5f bd
       0.13204709 -0.28776535 -0.1068413 -0.054648925
0000e0 ce f7 ff ba f6 53 d2 bc a8 e7 38 3c 4a fd ea 3c
       -0.0019528808 -0.025674801 0.0112857 0.02868523
0000f0 1a 0e 22 3e 10 84 a9 bd e3 3f 69 3d e8 5b 5e bc
       0.15825692 -0.08277142 0.056945693 -0.013571717
000100 0f 48 e4 bd f5 93 73 be e7 9c 03 be 13 18 0b 3e
       -0.111465566 -0.2378691 -0.12852822 0.13583402
000110 d6 fc 94 3d c5 3b 24 bd 0e 34 19 be 64 06 ac bd
       0.07274787 -0.040096063 -0.14961264 -0.083996564
000120 c4 2a c8 bd 17 a0 30 be 8b e7 52 bc d3 9a 44 be
       -0.09773782 -0.1724857 -0.012872587 -0.19199686
000130 85 b2 38 be 50 e7 11 be 73 c3 10 be 21 4f 36 3c
       -0.1803685 -0.14248395 -0.14137058 0.011127264
000140 f4 db 59 3d cf f1 e6 3d 41 c2 ff bc d6 db b9 3d
       0.05318828 0.1127659 -0.031220557 0.090751335
000150 09 93 15 3e ce 02 b8 3d 2e bf 5d 3e 81 58 ae 3d
       0.1460687 0.0898491 0.2165496 0.085129745
000160 57 bd 4f 3e 6e d8 11 3e 7c 27 99 3d 2c 75 df 3c
       0.20287071 0.14242718 0.07478234 0.027277552
000170 59 d2 4d 3c 76 29 81 3c 76 3d 52 3c 2d 85 3c 3d
       0.012562358 0.01576684 0.012832036 0.046025444
000180 f6 ed 79 3d 87 2f de 3d df e2 f3 3d 6e 30 dd 3d
       0.061017953 0.10848909 0.119085066 0.10800253
000190 1b 09 2c be bf d6 9a bb 32 fd 5e be c2 a0 d2 3d
       -0.16800348 -0.0047253068 -0.21776274 0.10284568
0001a0 4c 19 10 3e 6a f1 3d be ed 46 6e 3e 75 3c 8c 3d
       0.1407215 -0.18549123 0.23269244 0.06847469
0001b0 b9 7d f3 bc bc 63 c1 3d ec 97 fa 3d b1 4f 56 3b
       -0.029723035 0.09442851 0.12236008 0.0032701308
0001c0 4d ca 1b bd 0c 3c 17 3e 1c 53 a8 3b 84 dc 8c bc
       -0.038034726 0.14769 0.0051368605 -0.017194994
0001d0 f6 b4 07 be 87 46 fb bd 2a d3 d2 bd 7e b3 26 bd
       -0.13252625 -0.122693114 -0.102941826 -0.04069852
0001e0 87 bd 2c be 39 b8 10 3e ff 03 75 be e6 5f 84 3e
       -0.16869174 0.14132775 -0.23927306 0.25854415
0001f0 66 37 6a bd 52 b8 49 3e f1 a4 c2 3d 3b 38 96 3d
       -0.05718174 0.19699219 0.09504116 0.07334944
000200 b3 07 ed 3c 5a 9c 31 bd da 1d 5d 3b ac 66 0e be
       0.028934335 -0.043362 0.0033739717 -0.13906354
000210 41 0a 09 be 8f 61 5b 3d 87 06 1e 3d 64 46 00 be
       -0.13382818 0.053559836 0.038580444 -0.12526852
000220 5e 08 7d 3d c3 73 c5 bd c3 02 03 3d 6e a9 4f be
       0.061775558 -0.096412204 0.031985056 -0.20279476
000230 dc 9e 28 3e e6 e5 0a 3d 49 e4 75 3e 83 6a 55 be
       0.1646685 0.033910654 0.24012865 -0.20841412
000240 b6 78 ad 3d d9 1c 62 be 6f 64 27 bc bf 31 eb 3d
       0.084702894 -0.22081317 -0.010216816 0.11484098
000250 64 a8 e2 bd 57 14 f3 bd 5f 0e b3 bd ab 39 83 3d
       -0.11067274 -0.11869114 -0.087429754 0.06407484
000260 0e f6 2a 3e c4 eb 94 bd 70 05 e5 bc 58 e0 7e be
       0.16695425 -0.07271531 -0.027956694 -0.24890268
000270 82 76 2d 3d ec d5 54 be 98 32 d5 bd b1 73 8d 3d
       0.042349346 -0.2078473 -0.104100406 0.06906832
000280 53 29 0b bd 91 2b 6c bb e1 a8 31 be 0b f4 85 3e
       -0.033974957 -0.003603671 -0.17349578 0.26162753
000290 40 82 e9 bc 85 3f e1 bd 5d c7 9e 3d ba 9c 02 3e
       -0.02850449 -0.109984435 0.07752869 0.12755099
0002a0 a2 c5 62 3b a4 3c 0d bd 75 b0 77 be 4d da bb bc
       0.0034602662 -0.03448166 -0.24188407 -0.022931242
0002b0 2a 31 04 bd 36 b3 ce 3d 3d 7b 0c be d8 06 95 3d
       -0.03227345 0.100927755 -0.13718887 0.07276696
0002c0 4d ba 45 be f9 90 14 be bf 79 e4 3d dd 4b d1 3b
       -0.1930935 -0.14508428 0.11156034 0.0063872174
0002d0 15 86 16 be 1a 5a 4e 3e 68 f8 54 3e 92 b0 71 3e
       -0.14699586 0.20151559 0.20797884 0.23602512
0002e0 39 53 42 3e 59 2d 1d be 86 51 4d be a0 20 1b 3e
       0.1897706 -0.1534933 -0.2005063 0.15149164
0002f0 64 e6 dd b9 17 f7 85 bd 94 86 1d be 35 d8 12 bc
       -0.0004232406 -0.06541269 -0.15383369 -0.008962681
000300 e8 a6 15 be 35 44 60 bb dd 60 d8 3c 1d e1 0a be
       -0.14614451 -0.0034220342 0.026413376 -0.13562436
000310 6c 46 46 3e 2e 3d 66 3e 6e a4 1b 3e 61 af ab 3d
       0.19362801 0.22484276 0.15199444 0.0838306
000320 5c e7 fe 3d de db d4 bc 37 24 41 be 71 b8 47 ba
       0.12446472 -0.025983747 -0.18861471 -0.00076187315
000330 40 86 32 3e 9e cf 90 3d 56 ec 7b 3e 76 35 28 be
       0.17434025 0.0707085 0.24601874 -0.16426644
000340 d0 5a 8f bd 12 2c a8 bd a7 4c c7 3c d1 70 5a be
       -0.06999743 -0.08211531 0.024328543 -0.21332099
000350 61 ad a9 bd 7a d6 49 be 4b 4d 63 bb 9e 3d c2 bc
       -0.082850225 -0.19710723 -0.0034683521 -0.023711022
000360 f2 07 9f 3d 9d 9d 4e be 6b dc 57 bc 3d 9f 95 3d
       0.07765187 -0.20177312 -0.01317511 0.07305763
000370 5c d2 2f bd 82 50 76 3c 63 40 45 3e 22 ce f4 3d
       -0.042925224 0.015033843 0.19262843 0.11953379
000380 64 ad b5 bc 34 18 a8 3d ad 4f 5a be 13 da 5b 3e
       -0.022177406 0.082077414 -0.21319456 0.21469907
000390 a3 b5 84 bd d9 d1 c3 3d 53 e6 58 be a9 a9 c6 bd
       -0.06479957 0.0956151 -0.21181612 -0.09700329
0003a0 4d c7 17 3b ae 25 21 bd 25 9e 1b 3e b3 a8 c3 3d
       0.0023159564 -0.039342575 0.15197046 0.09553661
0003b0 9c 39 76 3e de ab 0e 3d 33 19 ae bd 04 ff 34 bd
       0.24045414 0.034831874 -0.085009 -0.044188514
0003c0 34 d9 c7 bd b9 1e f9 bc fa 06 da bd c8 7a 22 be
       -0.09758225 -0.030410158 -0.10645862 -0.1586715
0003d0 6a 26 85 bd f8 63 94 3d 69 21 4c 3c 0c b7 77 bc
       -0.065014675 0.0724563 0.0124591375 -0.015119325
0003e0 3a ae 03 bb 9f ba 3a bb fd 02 6e 3d c9 19 36 bd
       -0.002009286 -0.0028492582 0.05810832 -0.044458184
0003f0 24 3f 47 3d 59 0a 23 3e b2 38 22 3e b5 6d c6 3d
       0.0486442 0.15921916 0.1584194 0.09688894

conv.bias f4 [25]
000000 03 a2 4e be 48 e5 3f 3e 0c cb ac 3d fa 09 19 be
       -0.2017899 0.18739808 0.084371656 -0.14945212
000010 de f2 e3 3d 08 d3 45 bd d4 86 d7 bd e4 28 6d bd
       0.111303076 -0.04829696 -0.10523763 -0.057900324
000020 d0 7e 6c 3b e9 c1 13 be 1d e0 b1 bb 0b d2 c8 3c
       0.0036086328 -0.1442944 -0.0054283277 0.024514219
000030 76 97 40 be 50 07 9a 3d 40 0d 49 bd fc 39 07 be
       -0.18807778 0.07520926 -0.0490849 -0.13205713
000040 bc e2 2f be 98 af 12 be 1e e1 96 bd c9 ec a4 bd
       -0.17176336 -0.14324796 -0.073671564 -0.08052976
000050 95 d8 af 3d 2e 23 30 3e bc 7c ea bd 0b 75 84 3e
       0.085862316 0.1720092 -0.114495724 0.25870547
000060 42 87 2c be
       -0.16848472
