saved_model/simple_20211203-17-48-13.pth (torch, 20307 bytes, 10 tensors)

relation_embedding f4 [1, 20]
0	0xbe1d64e5	-0.1537052
1	0xbeada6e3	-0.33916387
2	0xbe6dd47b	-0.23225586
3	0x3f0c0dd1	0.5470858
4	0xbee2dbb8	-0.44308257
5	0xbecb6d06	-0.39731616
6	0xbe3997c9	-0.18124308
7	0x3ee57299	0.44813994
8	0x3ed013cb	0.406401
9	0xbf2931d8	-0.6609168
10	0x3f0fa733	0.561145
11	0xbf113232	-0.56717217
12	0x3f43f7fd	0.76550275
13	0xbefe4828	-0.49664426
14	0xbf398053	-0.7246143
15	0x3f0bf367	0.5466828
16	0x3e9b1641	0.30290416
17	0xbef0f231	-0.47059777
18	0xbeac9faf	-0.3371558
19	0xbd76ead5	-0.060282547

entity_embedding.weight f4 [5, 20]
0	0xbe29aaca	-0.16569057
1	0x3f721e0e	0.9457711
2	0x3fe51674	1.7897477
3	0x3f12bb25	0.5731681
4	0x3fb98657	1.4494122
5	0x3f237274	0.63846517
6	0xbfaeca0c	-1.365541
7	0xbd091ea4	-0.033476487
8	0x3ed85c1e	0.4225778
9	0x3fd21d62	1.6415217
10	0xbe79fd83	-0.24413113
11	0x3e045192	0.12921742
12	0x3fb61545	1.4225241
13	0xbe5d5426	-0.21614131
14	0x3f44754c	0.7674148
15	0xbe39e0ed	-0.18152209
16	0xc00e67fb	-2.2250965
17	0xbedb1089	-0.42786053
18	0xbe854591	-0.26029637
19	0x400f7acc	2.24187
20	0x3d98cfca	0.074615076
21	0xbfab711c	-1.3393893
22	0xbf694bd6	-0.9113134
23	0xbf0da20f	-0.55325407
24	0x3daa8727	0.083265595
25	0x3fe35d65	1.7762877
26	0x40102abb	2.252608
27	0xbe2d4e73	-0.16924457
28	0x3e9bc6cd	0.3042511
29	0xbf9fd112	-1.2485678
30	0xbf24b80b	-0.6434333
31	0xbfa8ab36	-1.317725
32	0x40133255	2.299947
33	0x3f533831	0.82507616
34	0xbf8f1d71	-1.118086
35	0xbe4067c2	-0.1878958
36	0x3f0f4447	0.5596356
37	0xbf80b00f	-1.0053729
38	0xbf77bd3f	-0.9677314
39	0x3ec758c3	0.38934907
40	0xba103000	-0.00055003166
41	0x3d178e38	0.037000865
42	0xbfe570d7	-1.7925061
43	0x3fa8dbf7	1.3192128
44	0x3f6b3e16	0.9189161
45	0x401139cd	2.2691529
46	0xbe137a6b	-0.14402167
47	0x3fa590de	1.2934835
48	0x3f404fee	0.75121963
49	0x3f254ac6	0.6456722
50	0xbbb227a6	-0.0054368554
51	0xbdf4b845	-0.11949209
52	0x3f322388	0.69585466
53	0xbec51099	-0.38489226
54	0xbe9faf67	-0.3118851
55	0x3f96c9a0	1.1780281
56	0x401fa97f	2.4947202
57	0x3ec8ceb6	0.39220208
58	0x3f8d1682	1.1022494
59	0xbe5d1c97	-0.21592937
60	0xbe3778b5	-0.1791714
61	0x3e678760	0.22610235
62	0x3f83a57c	1.0284877
63	0x3ec61437	0.38687298
64	0xbf375a4c	-0.7162216
65	0x3f11158a	0.5667349
66	0x3f305fa5	0.6889594
67	0x3f5b59c0	0.8568382
68	0x3f743a3f	0.95401376
69	0xbfc738af	-1.5564173
70	0xbfe24e70	-1.7680187
71	0x3fbc2063	1.4697384
72	0x3fef2cc7	1.868554
73	0xbf84b401	-1.0367433
74	0x3edc3500	0.43009186
75	0x3f047e79	0.5175548
76	0xbb206f6e	-0.002448048
77	0x3fb94610	1.4474506
78	0x3f8d7173	1.1050247
79	0x400e363b	2.22206
80	0x3df69b3a	0.12041326
81	0x3e84f3ef	0.25967357
82	0xbf10233e	-0.56303775
83	0x3f4bbc8e	0.79584587
84	0x3f37448e	0.7158898
85	0x3f430cc2	0.7619134
86	0xbf8d2bcd	-1.1028992
87	0x3e270b4e	0.16312906
88	0x3b0c22de	0.0021383087
89	0xbd44a313	-0.048007082
90	0x3e777f19	0.24169578
91	0x40221e69	2.533106
92	0x3ec7e02d	0.3903822
93	0xbfb8027f	-1.4375762
94	0xbec74fda	-0.3892811
95	0xbe70e39a	-0.23524323
96	0xbfb8d066	-1.4438598
97	0xc02bd31c	-2.68476
98	0x3f811f38	1.0087652
99	0xbf103b72	-0.56340706

conv1.basis f4 [4, 20, 20]
0	0xbd5ad70d	-0.053427745
1	0x3c575b64	0.013144348
2	0x3e0c793b	0.13718121
3	0xbdab693e	-0.08369683
4	0x3e015350	0.12629437
5	0xbdcf20fd	-0.10113714
6	0xbd8afbf3	-0.06786337
7	0x3db1c318	0.08679789
8	0x3a1474ae	0.00056631386
9	0x3d64a7b1	0.055823985
10	0x3e035830	0.1282661
11	0x3cce1935	0.025158504
12	0xbc4c8f00	-0.012485266
13	0xbd8a3c58	-0.06749791
14	0xbe0f03f5	-0.13966353
15	0xbdc7b011	-0.09750379
16	0x3c6ca955	0.014444669
17	0x3bd80890	0.0065928176
18	0xbe4619f7	-0.19345842
19	0xbdd95ccc	-0.10613403
20	0xbde905ca	-0.11378057
21	0xbdf17f13	-0.117918156
22	0xbd1fa7da	-0.038978435
23	0x3da84be1	0.08217598
24	0x3c950061	0.018188657
25	0x3cf5cc8f	0.030004768
26	0x3e1f9e47	0.15587722
27	0xbd98dcd8	-0.074639976
28	0xbdc5d5d1	-0.09659923
29	0x3def3306	0.11679654
30	0xbc2f925c	-0.010716047
31	0xbd9ed9c0	-0.07756376
32	0x3e03cc32	0.12870863
33	0x3de732bc	0.11288974
34	0x3dc1be47	0.09460121
35	0x3dddcfda	0.1083066
36	0xbd488df8	-0.048963517
37	0xbd9a8cf9	-0.0754642
38	0x3d863f84	0.065550834
39	0x3c06405e	0.008194057
40	0xbda02cd6	-0.07821052
41	0xbc03628c	-0.008019101
42	0xbdd3ba91	-0.10338319
43	0x3d9f26d7	0.0777108
44	0xbe35f3a4	-0.17768723
45	0x3e23eb10	0.16007638
46	0x3de9dec5	0.11419443
47	0x3c4d9056	0.012546619
48	0x3da4db4a	0.080496386
49	0x3c74a11b	0.014930989
50	0x3c92a12a	0.017899115
51	0x3dd2bf04	0.102903396
52	0x3de6fe8c	0.1127902
53	0x3e0515f7	0.1299666
54	0xbc123e32	-0.008925961
55	0x3df23585	0.11826614
56	0xba87cb40	-0.0010360256
57	0x3cdc0259	0.026856588
58	0xbe49662c	-0.19667882
59	0xbd8f1b38	-0.069876134
60	0x3dc3b578	0.09556097
61	0x3e0349d4	0.12821132
62	0x3d36d8e0	0.044640422
63	0x3d5b0ff4	0.05348201
64	0x3db308e1	0.08741928
65	0x3d8148bd	0.06312702
66	0x3dcbdfb1	0.09954775
67	0xbd13dda7	-0.036100056
68	0xbe319967	-0.17343675
69	0x3e264267	0.16236268
70	0x3d709a5f	0.05874097
71	0xbd66303a	-0.056198336
72	0x3c9b6958	0.01897113
73	0x3cde2a3d	0.02711975
74	0x3e07f59c	0.13277286
75	0xbcf25aff	-0.029584406
76	0xbe06d127	-0.13165723
77	0xbe0338fb	-0.12814705
78	0xbd920300	-0.071294785
79	0x3e231234	0.15924913
80	0x3d85461c	0.06507513
81	0x3e08b89d	0.13351674
82	0x3e30d302	0.17267993
83	0x3e24b8eb	0.16086166
84	0x3cd66366	0.026170444
85	0x3d66e61b	0.05637179
86	0x3e12a57d	0.14320941
87	0xbd98dde0	-0.07464194
88	0xbd5838b3	-0.052788448
89	0x3e2d42d0	0.16920018
90	0xbd400c87	-0.046886947
91	0xbcfe16a1	-0.03101665
92	0x3d84242d	0.064522125
93	0x3e26d244	0.16291147
94	0x3e2c556d	0.16829462
95	0xbe0e30d0	-0.13885808
96	0xbdd84d85	-0.10561661
97	0x3d770003	0.060302746
98	0xbd5a21a8	-0.053254753
99	0x3d8eab2c	0.06966242
100	0x3e2e8179	0.17041577
101	0xbca09263	-0.019601053
102	0x3e41b5ff	0.18917082
103	0x3e678479	0.22609128
104	0x3d3fd1cc	0.046830937
105	0xbd0ffe62	-0.035154708
106	0x3dc41040	0.09573412
107	0xbd8e4181	-0.06946088
108	0xbd6051df	-0.05476558
109	0x3d609d93	0.054837774
110	0x3e2cc3f7	0.1687163
111	0xbd218ca5	-0.03944077
112	0xbc8a171f	-0.016856728
113	0x3deb954d	0.11503086
114	0x3dbee827	0.09321623
115	0xbe259049	-0.16168322
116	0x3c4ba34c	0.01242907
117	0xbdf99ce6	-0.12188129
118	0x3df42e74	0.11922923
119	0x3c11b235	0.0088925855
120	0x3e2dc8ef	0.16971181
121	0xbd82546d	-0.06363759
122	0xbc5fa850	-0.013650969
123	0xbdd5ed57	-0.104456596
124	0x3d5d91d6	0.054094158
125	0xbdb1156c	-0.08646664
126	0x3cef59cd	0.029217625
127	0xbc1dd0a2	-0.0096322615
128	0xbd825233	-0.063633345
129	0xbde5368c	-0.111920446
130	0x3e410869	0.18850864
131	0x3c74ee2d	0.014949364
132	0xbdaf8f4f	-0.08572256
133	0xbc9be4c8	-0.01902999
134	0xbd5ffaef	-0.05468267
135	0xbe21255a	-0.15736905
136	0x3bd55c14	0.0065112207
137	0xbdfe096a	-0.12404139
138	0x3c3d90f6	0.011570206
139	0x3e0f4e3b	0.13994686
140	0x3c8794b8	0.016550407
141	0xbd71e761	-0.05905855
142	0x3def2b1f	0.116781466
143	0x3e32e7f8	0.17471302
144	0x3d2871ba	0.041124083
145	0xbd75b8bf	-0.05999064
146	0x3dfccfc9	0.123443194
147	0x3deda338	0.11603397
148	0xbd86b37a	-0.06577201
149	0xbd36b57c	-0.04460667
150	0x3d99aab4	0.07503262
151	0x3dee7118	0.11642665
152	0xbd959fbc	-0.073058575
153	0x3e0fc339	0.14039315
154	0xbd03f5c5	-0.032216806
155	0xbc8114d3	-0.015757
156	0xbd8fa46f	-0.07013785
157	0xbddee00c	-0.10882577
158	0x3c86fed1	0.016478928
159	0x3e0c6ece	0.13714144
160	0x3dabf91d	0.08397124
161	0x3c945a68	0.018109515
162	0x3c96e14a	0.018417973
163	0x3e1fd506	0.15608606
164	0x3dbbfcc9	0.09179074
165	0x3cd4ed46	0.025992047
166	0x3e26c57c	0.16286272
167	0xbde60ec9	-0.11233289
168	0xbc1b0ff8	-0.009464256
169	0x3e41d112	0.1892741
170	0xbdbdd31d	-0.09268782
171	0xbd06a0ee	-0.03286832
172	0x3dd7db00	0.10539818
173	0x3dfcbe75	0.12341014
174	0x3db687ee	0.08912645
175	0xbe00c3f6	-0.12574753
176	0xbd7ba743	-0.06143881
177	0x3cb6f112	0.022331748
178	0x3e0f6b08	0.14005673
179	0x3d96098c	0.0732604
180	0x3d2f28dc	0.042763576
181	0x3d43f051	0.047836605
182	0xbd11da20	-0.03560841
183	0x3e286c70	0.16447616
184	0xbe07dcb1	-0.13267781
185	0x3bd957f4	0.0066327993
186	0x3e007f02	0.1254845
187	0xbd87ffd0	-0.06640589
188	0xbde1b6d5	-0.110212006
189	0xbd3b3962	-0.04570902
190	0xbe1f00cc	-0.15527648
191	0xbe1e363c	-0.15450376
192	0xbcb98163	-0.022644704
193	0x3dd5a8ea	0.104326084
194	0x3e3c4864	0.1838699
195	0x3c536f8e	0.012905015
196	0x3e0ab130	0.13544154
197	0xbd68ebc8	-0.056865484
198	0xbd8cd1a4	-0.06875923
199	0xbe404cd5	-0.18779309
200	0xbd7b928d	-0.06141906
201	0xbd0b8216	-0.034059606
202	0xbe25c23a	-0.16187373
203	0xbe2f2a5c	-0.17106003
204	0xbd9d4061	-0.07678295
205	0x3d3222ad	0.0434901
206	0xbde078a1	-0.10960508
207	0xbd346b93	-0.044047903
208	0x3d8060d5	0.06268469
209	0xbe12b6a2	-0.14327481
210	0xbc7fad7e	-0.015605329
211	0xb99fef08	-0.00030504935
212	0xbd58c88b	-0.052925628
213	0xbe2a8df2	-0.1665571
214	0xbd0e7484	-0.034779087
215	0x382a3a00	4.0585175e-05
216	0xbd723168	-0.05912915
217	0x3e084dcb	0.13310926
218	0xbd2a76af	-0.04161709
219	0x3b0a29c7	0.002108203
220	0x3d35afcd	0.04435711
221	0x3cd31140	0.025765061
222	0x3daf9d21	0.08574892
223	0x3a7e3130	0.00096966606
224	0xbc626d8e	-0.013820065
225	0x3e2b8489	0.16749777
226	0x3e2bb7a3	0.1676927
227	0xbe09d56f	-0.13460325
228	0x3d9bd533	0.07609024
229	0x3dd53dbe	0.10412167
230	0x3d6d0052	0.057861634
231	0xbbbb47b6	-0.0057153357
232	0x3d94a746	0.072584674
233	0x3e2c6e6d	0.16838999
234	0x3e276596	0.16347346
235	0x3b5d3735	0.003375483
236	0xbd8dc29c	-0.069218844
237	0x3d0dd1fe	0.034624092
238	0xbd3ad8ad	-0.045616794
239	0x3d2ac178	0.041688412
240	0x3e1e6406	0.15467843
241	0x3df09bdb	0.11748477
242	0x3c89c30e	0.016816642
243	0x3dd65a0a	0.10466392
244	0x3e1225e0	0.1427226
245	0x3c856062	0.01628131
246	0x3dc91273	0.09817972
247	0xbdca7e7f	-0.098874085
248	0xbe079fbb	-0.13244526
249	0x3e188d11	0.14897563
250	0xbd848b2b	-0.06471857
251	0x3cb4a149	0.022049563
252	0x3dce143d	0.10062454
253	0x3bd2f278	0.006437596
254	0x3e1f281a	0.15542641
255	0x3cc03b43	0.023465758

conv1.att f4 [4, 4]
0	0x3e3d4252	0.1848233
1	0x3d9c8fac	0.07644591
2	0x3e29c3df	0.16578625
3	0x3e61c1cf	0.22046588
4	0x3e20f8fb	0.15719979
5	0x3e0103b1	0.12599064
6	0x3e1b9ece	0.15197298
7	0x3e559548	0.20857728
8	0x3e3958b1	0.1810024
9	0x3e2910cd	0.16510315
10	0x3e3c7fe5	0.18408163
11	0x3de9cad4	0.114156395
12	0xbcce5465	-0.025186727
13	0x3da243d3	0.07923093
14	0x3e4f6f6c	0.20257348
15	0x3dd9baa9	0.10631306

conv1.root f4 [20, 20]
0	0xbe55b4eb	-0.20869796
1	0xbd65afbe	-0.056075804
2	0xbd056619	-0.03256807
3	0xbd8c7ba0	-0.06859517
4	0x3b2b944c	0.002618092
5	0xbe6916bf	-0.22762583
6	0x3d0af40d	0.03392415
7	0xbcb07874	-0.021541812
8	0x3e0612ea	0.13093153
9	0xbe4c161a	-0.19930306
10	0xbcc8fdcf	-0.024535088
11	0x3d9efcfb	0.07763096
12	0xbb9d7f5f	-0.0048064436
13	0x3c257a35	0.010099937
14	0xbdbd98a3	-0.09257629
15	0xbd24ecd8	-0.040264934
16	0x3e03e8c5	0.12881763
17	0x3dc84183	0.0977812
18	0x3e34196c	0.17587823
19	0x3d3d93cb	0.046283524
20	0x3e55142e	0.20808479
21	0x3cad16a2	0.021128956
22	0x3ddb5c07	0.10710912
23	0x3e75ee6e	0.24016735
24	0xbde03904	-0.10948375
25	0x3e22b260	0.15888357
26	0xbe09b304	-0.13447195
27	0xbd7eff6e	-0.062255315
28	0x3d363e4f	0.044493016
29	0x3cb78789	0.022403495
30	0xbe05be69	-0.13060917
31	0xbc2035d8	-0.009778462
32	0xbd7a1b9e	-0.061061494
33	0xbdaeabda	-0.08528872
34	0x3e009d19	0.12559928
35	0xbbf86dff	-0.007581472
36	0x3ca0dd82	0.019636873
37	0x3c5deff9	0.0135459835
38	0xbddff97b	-0.109362565
39	0xbe56caae	-0.20975754
40	0x3d51c4c2	0.051213033
41	0xbe104e34	-0.14092332
42	0x3d895b36	0.0670685
43	0x3d8af928	0.06785804
44	0xbd0edbce	-0.03487759
45	0x3c935900	0.017986774
46	0xbe13b116	-0.14423022
47	0x3c9908d4	0.018680967
48	0xbe38f906	-0.18063745
49	0x3e2445ab	0.16042201
50	0xbe29b404	-0.16572577
51	0xbdb2b661	-0.08726192
52	0xbd560552	-0.052251168
53	0xbcc132fd	-0.023583883
54	0x3e527ded	0.2055585
55	0x3cf9862b	0.030459484
56	0xbda41e89	-0.080136366
57	0xbc84c8eb	-0.016209086
58	0xbe418b81	-0.18900873
59	0xbe435176	-0.19074044
60	0x3e596d73	0.21233158
61	0x3e500cb8	0.20317352
62	0x3e7216d8	0.23641527
63	0x3e199182	0.14996913
64	0xbe35369b	-0.17696612
65	0x3d9879b9	0.07445092
66	0xbc779423	-0.015111002
67	0x3ce55e74	0.02799914
68	0xbd976b83	-0.07393553
69	0x3e143077	0.14471613
70	0xbdfe8311	-0.12427343
71	0x3e21a094	0.15783912
72	0xbd49fb6e	-0.049312048
73	0xbdb631d1	-0.088962205
74	0x3d11ac68	0.03556481
75	0xbd667e1b	-0.056272607
76	0xbcbf3505	-0.023340711
77	0x3c4038b6	0.011732271
78	0xbe26e92a	-0.16299883
79	0xbe22f9f3	-0.1591566
80	0x3e1e3e1b	0.15453379
81	0x3e4ba28b	0.19886224
82	0x3e14c0a5	0.14526613
83	0x3e03e5c5	0.12880619
84	0x3da71fbc	0.0816035
85	0xbe1ec12a	-0.15503374
86	0xbdc23900	-0.09483528
87	0x3d01682f	0.031593498
88	0xbdc6f1e4	-0.09714106
89	0xbd008190	-0.03137356
90	0x3c54ccce	0.012988282
91	0x3aa26ba2	0.0012391696
92	0x3d4b4bef	0.049632963
93	0xbdfa3809	-0.12217719
94	0x3d8eb072	0.06967248
95	0xbddcd0bf	-0.10782003
96	0xbcdfbd94	-0.027312078
97	0x3dacb847	0.084335856
98	0x3bec98db	0.00722037
99	0x3dd4e6b3	0.10395565
100	0x3dce41d2	0.10071148
101	0xb89a5ce8	-7.3605974e-05
102	0x3da9c093	0.08288684
103	0x3dabb7ad	0.08384643
104	0x3e053f59	0.13012446
105	0x3d945307	0.07242399
106	0x3e5bf913	0.21481733
107	0xbda59644	-0.080853015
108	0x3d011f10	0.031523764
109	0x3e295b38	0.16538703
110	0xbcd7bf11	-0.026336225
111	0x3e26f4a7	0.16304265
112	0xbdaf773e	-0.085676655
113	0x3e26c859	0.16287364
114	0x3ddc610f	0.107607
115	0xbdcad87b	-0.099045716
116	0xbdc0a02d	-0.09405551
117	0xbdc380b8	-0.095460355
118	0x3d311e29	0.043241654
119	0x3c821093	0.015877044
120	0xbe1bf7d8	-0.15231264
121	0x3ccbc694	0.024874963
122	0xbd32da17	-0.043665018
123	0xbe2bf4b7	-0.1679257
124	0x3d62af0a	0.05534271
125	0x3da11f7f	0.078673355
126	0x3e6436ec	0.22286576
127	0xbd0c1cca	-0.034207143
128	0xbdde58fc	-0.10856816
129	0x3db2512b	0.08706888
130	0xbe1bd8ff	-0.15219496
131	0xbe2b83d8	-0.16749513
132	0x3d8be64f	0.06831037
133	0x3e62ebef	0.22160314
134	0x3e06dc2a	0.13169923
135	0x3bea626f	0.0071528475
136	0x3cf42282	0.02980161
137	0x3db4429b	0.088017665
138	0x3daefe65	0.08544616
139	0x3e37e59d	0.17958684
140	0x3ddec433	0.10877266
141	0x3c4a82de	0.012360303
142	0xbcce318f	-0.025170116
143	0x3df928cd	0.12165985
144	0xbe1c11af	-0.15241121
145	0x3e1b4b77	0.15165506
146	0x3e2be9c4	0.16788393
147	0xbd8fea8f	-0.070271604
148	0xbcff5144	-0.03116668
149	0x3ca86c4e	0.020559456
150	0xbb8fab99	-0.0043844697
151	0x3beb3371	0.007177763
152	0x3d64e472	0.055881925
153	0xbb9f6125	-0.0048638755
154	0x3e7e2b46	0.24821195
155	0x3deb7df1	0.11498631
156	0x3d99df4e	0.07513295
157	0xbd8ccda4	-0.0687516
158	0xbdb650d1	-0.08902133
159	0xbde5e1d5	-0.11224715
160	0x3c547435	0.012967159
161	0x3e002cf3	0.12517147
162	0x3daf6968	0.085650265
163	0x3e7bc7b5	0.24587901
164	0x3d26709c	0.040634736
165	0x3e6014af	0.2188289
166	0x3e5d3c79	0.216051
167	0xbdc99f10	-0.09844792
168	0xbe07f19d	-0.13275762
169	0x3ce84902	0.028355125
170	0xbe031847	-0.1280223
171	0x3e1c22d6	0.15247664
172	0xbdc4560b	-0.09586724
173	0x3e5b3f6b	0.21410911
174	0x3e67e743	0.22646813
175	0x3c7585a7	0.0149854785
176	0x3bb6af7e	0.0055751195
177	0xbde7a3cd	-0.113105394
178	0x3d623e9a	0.055235483
179	0x3e342159	0.17590846
180	0x3d345563	0.044026744
181	0x3dea9066	0.11453323
182	0x3dff42b1	0.12463892
183	0xbd9e3784	-0.077254325
184	0xbdba9876	-0.09111111
185	0xbe546fbb	-0.20745747
186	0xbe24674e	-0.16055033
187	0x3d175c66	0.036953352
188	0x3d65d920	0.05611527
189	0x3c6fae01	0.014628888
190	0x3e0389d1	0.12845542
191	0x3e449c46	0.19200239
192	0xbde8bc78	-0.113640726
193	0xbe5ad2e8	-0.21369517
194	0x393e0800	0.00018122792
195	0xbc19c978	-0.009386413
196	0xbdc7e2b3	-0.09760036
197	0xbc845602	-0.016154293
198	0xbdfc22e9	-0.12311346
199	0xbbbe21cc	-0.0058023687
200	0xbe3493e0	-0.17634535
201	0x3dcee09b	0.10101434
202	0xbe6e16c6	-0.23250875
203	0xbce93e0a	-0.028471965
204	0x3d8a74c8	0.067605555
205	0xbdfe30ae	-0.12411629
206	0xbe4734d0	-0.1945374
207	0xbcedceeb	-0.02902933
208	0x3dcfa08d	0.101380445
209	0xbe34654a	-0.17616764
210	0xbbf60a52	-0.0075085545
211	0x3d25e637	0.040502753
212	0xbc899eef	-0.016799418
213	0xbd364baa	-0.044505753
214	0xbdd9c230	-0.106327415
215	0x3d9fd3e2	0.07804085
216	0x3cd9f70a	0.026607055
217	0x3d748be9	0.05970374
218	0xbd87925a	-0.06619711
219	0xbda9675e	-0.08271669
220	0xbbeadb7e	-0.007167279
221	0x3cfcd73d	0.030864352
222	0x3bce8f98	0.006303739
223	0x3e7a9687	0.24471484
224	0xbe0b2cca	-0.13591304
225	0x3da8ebea	0.08248122
226	0x3e06407f	0.13110541
227	0xbd79ad8a	-0.060956515
228	0xbdf4edad	-0.119593956
229	0x3dfe5023	0.124176286
230	0xbe22b08b	-0.15887658
231	0xbdd451c6	-0.103671595
232	0xbd8f993b	-0.07011648
233	0xbd8c151c	-0.06839964
234	0x3e4b6861	0.19864036
235	0xbddbd5d5	-0.107341446
236	0xbe0ed0dd	-0.13946863
237	0x3df8cffd	0.121490456
238	0xbdac43ca	-0.08411367
239	0xbe1eda9d	-0.15513082
240	0x3e4260d2	0.18982247
241	0xbbfed72c	-0.0077771153
242	0x3e284b2f	0.1643493
243	0x3e85de07	0.26145956
244	0x3d7f2582	0.06229163
245	0x3dd5f1c5	0.104465045
246	0x3e279162	0.16364053
247	0xbda548c4	-0.080705196
248	0xb983a5e4	-0.00025109865
249	0x3e717f57	0.23583733
250	0xbdb58d90	-0.088648915
251	0xbc9aa8c9	-0.018879311
252	0x3d1921a4	0.037385598
253	0x3e38297f	0.1798458
254	0x3e5a6850	0.21328855
255	0xbd3e3b17	-0.04644307

conv1.bias f4 [20]
0	0x3e3a81c4	0.18213564
1	0x3e29065c	0.16506332
2	0x3d0e39ae	0.034722976
3	0x3e5051de	0.2034373
4	0xbdb68d2b	-0.089136444
5	0x3e439959	0.19101466
6	0x3e3b124b	0.18268697
7	0xbd581ea6	-0.052763604
8	0xbdc76132	-0.097353354
9	0x3d95210b	0.07281693
10	0xbd85c9f3	-0.065326594
11	0x3cbe9dff	0.023268698
12	0x3d4c2de6	0.04984846
13	0x3e3102f4	0.17286283
14	0x3deeb300	0.11655235
15	0xbdb9f228	-0.09079391
16	0xbd8abc0e	-0.0677415
17	0xbb942a97	-0.0045216787
18	0xbd4c87bb	-0.04993413
19	0x3e2900b3	0.16504173

conv2.basis f4 [4, 20, 20]
0	0xbcab1932	-0.020886037
1	0x3d967470	0.073464274
2	0xbda0339e	-0.07822345
3	0x3e6e1c98	0.23253095
4	0xbddf1a5e	-0.10893701
5	0x3c0c1773	0.008550513
6	0x3d66ad5a	0.056317665
7	0x3e479da8	0.19493735
8	0xbe10cbec	-0.1414029
9	0xbd027611	-0.03185088
10	0x3d3a740e	0.045520835
11	0x3d95e2d0	0.07318652
12	0x3de48788	0.11158663
13	0x3ccd3feb	0.025054893
14	0xbd5bd91d	-0.053673852
15	0x3dd8f4ab	0.10593542
16	0xbe0f9a58	-0.14023721
17	0x3d0708b4	0.032967284
18	0xbcb0aca9	-0.021566706
19	0xbdad6c77	-0.08467954
20	0xbde3d79e	-0.1112511
21	0x3ca532f3	0.020165896
22	0xbd48835b	-0.048953395
23	0x3d650c18	0.055919737
24	0x3df5e302	0.12006189
25	0x3d446da5	0.047956128
26	0x3d04f415	0.032459337
27	0x3e220ce3	0.15825228
28	0xbbe9cb2e	-0.0071348166
29	0xbd36241b	-0.044468027
30	0x3e748015	0.23876984
31	0x3cd46be2	0.025930349
32	0x3cc451d1	0.023964794
33	0xbd3235b6	-0.043508254
34	0x3cf0e173	0.029404378
35	0x3e1db52e	0.15401146
36	0xbdec0b2a	-0.11525567
37	0x3df453fe	0.11930083
38	0x3ddf9f8e	0.109191045
39	0x3d547589	0.051869903
40	0xbddd9697	-0.10819738
41	0xbdfbb1a5	-0.122897424
42	0x3c8cfdbf	0.01721084
43	0x3dcaf5b1	0.09910143
44	0x3cef07f7	0.029178603
45	0x3e1f956c	0.15584344
46	0xbe488447	-0.1958171
47	0xbcaff472	-0.021478865
48	0x3db6f3f4	0.08933249
49	0xbe579a0c	-0.21054858
50	0xbc89c010	-0.016815215
51	0x3d8916f0	0.06693828
52	0x3dc5325c	0.09628746
53	0xbcc3bdb1	-0.023894163
54	0x3d5fd164	0.05464305
55	0xbd76d687	-0.060263183
56	0x3d62635b	0.055270534
57	0xbd4da825	-0.050209183
58	0x3d039e99	0.032133672
59	0xbd30b75d	-0.04314362
60	0xbdd06217	-0.10174959
61	0xbdcc6dca	-0.09981878
62	0x3df19dc4	0.117976695
63	0x3d68895b	0.056771617
64	0x3d1ea77a	0.038733937
65	0x3dd16756	0.10224788
66	0xbd946e47	-0.07247596
67	0x3d1c85dc	0.038213596
68	0xbc9973a9	-0.018731909
69	0xbcd40780	-0.025882483
70	0x3e367d15	0.17821153
71	0xbd9c9729	-0.07646019
72	0x3df70831	0.12062109
73	0xbdd6f426	-0.10495786
74	0xbdf1631c	-0.11786482
75	0x3d4bb0b3	0.04972906
76	0xbdbd5199	-0.09244079
77	0xbdc958ae	-0.098313674
78	0xbd4710a1	-0.048599843
79	0x3cd78293	0.02630738
80	0x3b2277c6	0.0024790629
81	0x3dea0cbd	0.11428211
82	0x3c6b07bb	0.014345105
83	0x3dc808cc	0.09767303
84	0xbe250aa1	-0.16117336
85	0xbd20d40f	-0.039264735
86	0x3e1132b9	0.14179505
87	0x3e26edba	0.16301623
88	0x3d5a770c	0.05333619
89	0xbdae276b	-0.08503612
90	0x3e62d7b1	0.22152592
91	0xbb96738a	-0.00459141
92	0x3cfe1714	0.031016864
93	0xbdbbcfae	-0.09170471
94	0x3d5668e6	0.052346133
95	0x3d58bed6	0.05291637
96	0x3cba57e3	0.022746986
97	0x3d1826d6	0.03714641
98	0x3dc4640e	0.095893964
99	0x3d495190	0.04915005
100	0x3d418e24	0.047254696
101	0x3c619c66	0.013770198
102	0xbdbc8126	-0.092043206
103	0x3e0776f8	0.13228977
104	0xbcf865d5	-0.030321995
105	0x3c76bb80	0.015059352
106	0xbd9de80e	-0.077102765
107	0x3df6ea50	0.1205641
108	0xbdf90a5d	-0.1216018
109	0xbac00284	-0.0014649187
110	0x3dcce09a	0.10003777
111	0xbe1b08ea	-0.15140119
112	0x3cae4863	0.021274751
113	0xbdb48776	-0.088148996
114	0xbdeb59eb	-0.1149176
115	0x3df735b1	0.12070788
116	0xbe510aac	-0.20414227
117	0xbd6fe577	-0.058568444
118	0x3c6f676c	0.01461206
119	0x3c9fe140	0.019516587
120	0xbd0ad9c3	-0.03389908
121	0xbd8df09b	-0.069306575
122	0xbc0dfd7f	-0.008666395
123	0x3d690539	0.056889746
124	0xbd6c930b	-0.05775742
125	0x3ce8e258	0.028428242
126	0x3d558dba	0.052137114
127	0x3e3a5e5d	0.18200059
128	0xbcc82336	-0.024430852
129	0x3d9c3858	0.07627934
130	0x3e2dbbd1	0.16966178
131	0x3dbcbfb7	0.09216254
132	0x3cb8bd5b	0.02255123
133	0x3cc445e1	0.023959102
134	0x3d2693a6	0.040668152
135	0x3d4cba0e	0.049982123
136	0x3bda8978	0.0066692196
137	0xbdc20932	-0.0947441
138	0x3d248f48	0.040175706
139	0x3cfda0e2	0.030960504
140	0xbdf3f233	-0.1191143
141	0x3d53bbaf	0.05169266
142	0x3d5dec23	0.054180276
143	0x3e25acfc	0.1617927
144	0xbd76a869	-0.060219202
145	0xbd58b334	-0.052905276
146	0xbd820ef4	-0.06350508
147	0x3cf27d4a	0.029600758
148	0x3c5d4943	0.0135062365
149	0xbe1d3e45	-0.15355785
150	0x3d629b0b	0.05532364
151	0x3de2c9e6	0.11073665
152	0x3c9c18e3	0.019054836
153	0x3d805e08	0.06267935
154	0x3da931c9	0.08261449
155	0x3def9e2b	0.1170009
156	0xbd168d32	-0.036755748
157	0x3e1b111d	0.15143247
158	0xbd126db5	-0.035749156
159	0xbd88a8e2	-0.06672837
160	0xbdcd3311	-0.10019506
161	0xbd42572c	-0.047446415
162	0xbd1b1778	-0.03786418
163	0x3d6eb0df	0.058274146
164	0xbcc6f9da	-0.02428906
165	0xbde80147	-0.11328369
166	0x3d224794	0.039619043
167	0xbb5b4d99	-0.0033463
168	0xbcd78cda	-0.02631228
169	0xbd4ab283	-0.04948665
170	0xbd995444	-0.074867755
171	0xbe08af31	-0.1334808
172	0xbde81656	-0.11332385
173	0x3cd12191	0.025528701
174	0x3ca12d36	0.019674879
175	0x3d1494f2	0.036274858
176	0x3b81c6c9	0.0039604646
177	0xbdb8d50e	-0.09025012
178	0x3da1c30f	0.078985326
179	0xbd887f36	-0.066648886
180	0xbd2a6941	-0.041604284
181	0xbd9ba96d	-0.07600675
182	0x3c6ed61a	0.014577413
183	0x3e4eb94a	0.2018787
184	0x3ccd2fc8	0.025047198
185	0x3d0c6182	0.03427268
186	0xbc84cef2	-0.01621196
187	0x3e76fd5e	0.2412009
188	0xbe05ed92	-0.13078907
189	0x3d9c85be	0.07642697
190	0x3d550d5f	0.052014705
191	0xbbfe0f43	-0.007753284
192	0x3e0173ad	0.12641783
193	0xbca62e02	-0.02028561
194	0xbd98b087	-0.07455545
195	0x3e550c45	0.20805462
196	0xbdd3145e	-0.10306619
197	0xbcfceda1	-0.030875029
198	0x3d84e4fe	0.06488989
199	0x3d8c65f3	0.06855383
200	0x3d979acd	0.07402573
201	0x3b449873	0.0029998093
202	0x3d1df49e	0.038563363
203	0x3d97c9b2	0.07411517
204	0xbdecff14	-0.1157209
205	0xbd18bb44	-0.037287965
206	0xbc5f5b1c	-0.013632562
207	0x3ce033fc	0.027368538
208	0x3cb48b34	0.022039033
209	0xbd94085d	-0.07228158
210	0x3e4e55c4	0.20149904
211	0xbde3244d	-0.11090908
212	0x3de70938	0.11281055
213	0x3cd289eb	0.02570053
214	0x3d7bf7e4	0.061515704
215	0x3cf9ab24	0.030477114
216	0xbdd62a87	-0.1045733
217	0xbe1a785f	-0.1508498
218	0x3dd5d8dd	0.10441754
219	0xbcd2ba71	-0.025723668
220	0xbd98f27a	-0.07468124
221	0xbdc87d3c	-0.097895116
222	0xbdaf36b6	-0.08555357
223	0x3e0a302c	0.13494939
224	0xbce677c9	-0.02813329
225	0x3c72be34	0.014815856
226	0x3d897a36	0.06712763
227	0x3e033604	0.12813574
228	0x3cc00b37	0.023442848
229	0xbd77c99e	-0.06049501
230	0x3e5fa449	0.21840014
231	0xbdec633d	-0.11542366
232	0x3da0a1ff	0.07843398
233	0xbd618150	-0.055054963
234	0xbbd527e8	-0.0065050013
235	0x3d455344	0.04817511
236	0xbe010f39	-0.12603463
237	0xbddd28bc	-0.10798785
238	0x3d2385e5	0.039922614
239	0xbdcd709a	-0.10031243
240	0x3d27207d	0.040802468
241	0x3de90bd3	0.113792084
242	0x3d9a9d96	0.075495884
243	0x3d575cf3	0.052578878
244	0x3d55ed88	0.05222848
245	0xbd976841	-0.07392932
246	0x3d0d4a08	0.03449443
247	0x3d908f08	0.07058531
248	0xba9f82b0	-0.0012169685
249	0xbe03fd45	-0.12889583
250	0x3d3b9203	0.045793545
251	0xbc1cdc11	-0.009573952
252	0x3e1d8654	0.15383273
253	0x3c9d4706	0.019198906
254	0xbd03aa37	-0.03214475
255	0xbbbf7d92	-0.0058438266

conv2.att f4 [4, 4]
0	0x3d348e49	0.044081006
1	0x3e3c6d63	0.18401103
2	0x3e826aa7	0.25471994
3	0x3e1a04ee	0.15040943
4	0x3da9a83c	0.08284041
5	0x3e4a2678	0.19741237
6	0x3e175c30	0.1478126
7	0xbd046dbd	-0.032331217
8	0x3da06000	0.078308105
9	0x3e49e12a	0.197148
10	0x3e5a41e3	0.21314196
11	0x3dc89025	0.097931184
12	0x3e481da7	0.19542561
13	0x3df2152b	0.11820444
14	0x3e0b9a84	0.13633162
15	0x3e23c8ad	0.1599452

conv2.root f4 [20, 20]
0	0x3c91c75f	0.017795263
1	0xbdc253d4	-0.09488645
2	0x3dcdf35a	0.10056181
3	0x3e468e72	0.19390276
4	0x3d9eab53	0.07747521
5	0x3cad162b	0.021128735
6	0xbc4f17ec	-0.012639981
7	0x3e4868ae	0.19571182
8	0xbe1329a2	-0.1437135
9	0x3bb195e9	0.005419482
10	0x3db41378	0.08792776
11	0x3d225972	0.039636083
12	0x3e496e76	0.19671044
13	0x3cd61165	0.026131341
14	0xba928ddc	-0.0011181193
15	0x3e679fc2	0.22619537
16	0xbe22f47f	-0.1591358
17	0xbb9e8db1	-0.0048386683
18	0x3c2c825b	0.010529126
19	0xbd4c4aa7	-0.04987588
20	0xbcfd83b5	-0.030946592
21	0xbd0a56bf	-0.033774134
22	0x3dd99b71	0.10625351
23	0x3cd0d0aa	0.025490124
24	0x3d96017e	0.07324503
25	0xbe01e9e1	-0.12686874
26	0xbdd2f69e	-0.10300945
27	0x3df37ccd	0.11889038
28	0xbe23ffdd	-0.16015573
29	0xbb96fcc1	-0.0046077673
30	0x3e43557d	0.1907558
31	0xbbd88c51	-0.006608524
32	0x3c2ded1d	0.010615614
33	0xbcb607b8	-0.022220477
34	0xbd1c1ffb	-0.038116436
35	0x3dcc49fa	0.099750474
36	0xbca696d8	-0.0203356
37	0x3da0121a	0.078159526
38	0x3d8a5717	0.06754892
39	0x3e030a27	0.12796842
40	0x3dc200c2	0.09472801
41	0xbd72f5cc	-0.05931644
42	0xbd790e38	-0.060804576
43	0x3d4e455d	0.05035912
44	0x3c523d99	0.012832069
45	0xbd92af6d	-0.07162366
46	0x3c26b598	0.010175131
47	0x3d46b01b	0.04850779
48	0xbe4790c0	-0.19488811
49	0x3de1ef9c	0.1103203
50	0x3e402f24	0.18767983
51	0x3d1fbea6	0.039000176
52	0x3e1de8b1	0.15420796
53	0xbe068040	-0.13134861
54	0xbdaa6f20	-0.08321977
55	0x3d301f6d	0.04299872
56	0xbe0b0f6f	-0.13580106
57	0xbe69ca5f	-0.22831105
58	0xbd72ab37	-0.059245314
59	0x3c0ab5a4	0.008466158
60	0xbdad0f57	-0.084501915
61	0x3db6d6d4	0.08927694
62	0xbdf3d002	-0.11904909
63	0x3d914fb1	0.07095278
64	0xbd42e4da	-0.04758153
65	0xbcd9fd2e	-0.026609983
66	0xbdb41c37	-0.08794444
67	0x3e50dcbf	0.20396708
68	0xbcdaf04f	-0.026725916
69	0x3e01047a	0.12599364
70	0x3e89424f	0.26808402
71	0xbd3c50cb	-0.045975488
72	0x3e19db10	0.15024972
73	0xbd9cbade	-0.076528296
74	0xbd7890b9	-0.060684893
75	0x3d5306a8	0.05152002
76	0xbe380120	-0.17969179
77	0xbe008a4a	-0.12552753
78	0xbd596f04	-0.05308439
79	0x3d2b6e6a	0.041853346
80	0xbd0d5d42	-0.034512766
81	0xbcebdab6	-0.028790813
82	0x3cb0426a	0.021516044
83	0xbc08f844	-0.008359972
84	0x3ccdc3bd	0.02511775
85	0xbd158574	-0.036504224
86	0xbd5347f0	-0.051582277
87	0x3d6f3a2c	0.058405086
88	0xbd1e24a0	-0.038609147
89	0xbe1b52f5	-0.15168364
90	0x3d3ff1b0	0.04686135
91	0x3dbd50ef	0.092439525
92	0x3e32d825	0.17465265
93	0x3dbafb82	0.091300026
94	0xbe1e45eb	-0.15456359
95	0x3d7e5ec1	0.062102083
96	0xbe173a63	-0.14768367
97	0xbdee8c64	-0.11647871
98	0x3c993536	0.01870213
99	0x3de80610	0.11329281
100	0x3e15cbbd	0.14628501
101	0x3cd283ec	0.02569767
102	0x3dd0b204	0.10190204
103	0x3e2e65e4	0.17031056
104	0xbe3a7dcc	-0.1821205
105	0xbd92d607	-0.07169729
106	0x3e16fcdc	0.14744896
107	0x3d97072c	0.07374415
108	0xbdbf8e22	-0.093532816
109	0x3daa5f01	0.08318902
110	0x3d716177	0.05893084
111	0x3db9adc0	0.09066343
112	0x3e57d0a5	0.21075685
113	0x3d851898	0.064988315
114	0x3e07273b	0.13198559
115	0x3df6b6b9	0.1204657
116	0xbe412ee7	-0.18865548
117	0x3d991a75	0.074757494
118	0x3d3a1525	0.04543032
119	0xbd705740	-0.058676958
120	0xbd93cff9	-0.07217402
121	0x3cd4eaf1	0.025990935
122	0x3dea7a0b	0.11449059
123	0x3ddb68c0	0.10713339
124	0x3d840f91	0.064482816
125	0xbd6c6922	-0.05771745
126	0x3c8c2e4c	0.01711192
127	0x3e6be36a	0.2303597
128	0xbdc50389	-0.09619815
129	0xbdc2aac7	-0.095052294
130	0x3e5c34f9	0.21504582
131	0xbd4a2a12	-0.049356528
132	0x3e0eaf0c	0.13933963
133	0x3dccbe71	0.09997261
134	0xbb60d42e	-0.0034306156
135	0x3e18eac2	0.14933303
136	0xbe63d29e	-0.22248313
137	0x3d40436b	0.046939295
138	0xbd548fea	-0.05189506
139	0xbc937269	-0.017998891
140	0x3d198651	0.03748161
141	0x39c9b4cc	0.00038472412
142	0xbddb46be	-0.107068524
143	0xbd89d861	-0.06730724
144	0x3d8af3d9	0.067847915
145	0xbd8adeb9	-0.06780762
146	0x3dd42be3	0.10359933
147	0x3d8ed944	0.06975034
148	0x3d339a69	0.04384843
149	0xbd91625a	-0.07098837
150	0xbabe5771	-0.0014521909
151	0x3d2aa8e0	0.041664958
152	0xbda6af87	-0.08138948
153	0xbcc72247	-0.024308337
154	0x3d1ba6dd	0.03800093
155	0x3da01e82	0.07818319
156	0xbdf6078e	-0.1201316
157	0x3baba0c2	0.0052376697
158	0xbd78f682	-0.060781963
159	0x3d08f250	0.033434212
160	0xbc994fb3	-0.018714761
161	0xbcdb6b8f	-0.026784686
162	0xbd312604	-0.043249145
163	0x3c56c644	0.013108794
164	0x3cb4f138	0.022087678
165	0xbd51d822	-0.05123151
166	0xbd0744ef	-0.033024725
167	0x3d41b441	0.047291044
168	0xbd3b106e	-0.045669965
169	0x3d946e59	0.0724761
170	0x3e044420	0.12916613
171	0x3e0b248e	0.13588163
172	0x3b69c8a6	0.0035672574
173	0x3c190410	0.0093393475
174	0xbd697148	-0.0569928
175	0x3d0ed0d2	0.034867115
176	0xbd941ef0	-0.07232463
177	0xbe2b85c1	-0.16750242
178	0x3d26a0fe	0.040680878
179	0xbd90311f	-0.07040619
180	0x3d0ea74b	0.03482751
181	0xbd25a447	-0.04043987
182	0xbe0fcc9f	-0.140429
183	0x3dcf5dfe	0.101253495
184	0xbde8d88b	-0.11369427
185	0x3d6f3324	0.05839838
186	0xbd2ea70c	-0.042639777
187	0x3e195a65	0.14975889
188	0xbdfe4903	-0.1241627
189	0xbb0c6659	-0.0021423309
190	0x3e516f56	0.20452628
191	0x3cdbe08a	0.026840467
192	0x3e117238	0.14203727
193	0x3dc38bb0	0.09548128
194	0x3c8d0f29	0.017219143
195	0x3ddc3a9e	0.10753368
196	0xbdc94144	-0.098269016
197	0x3d913ce5	0.07091693
198	0x3b592752	0.003313501
199	0x3caf89a3	0.021427935
200	0xbd8706d5	-0.065931
201	0x3dea2af7	0.11433976
202	0xbd03d937	-0.032189574
203	0x3c7272b2	0.014797853
204	0xbd06c6e5	-0.032904524
205	0xbcd62d66	-0.026144695
206	0xbc0d5e3a	-0.008628422
207	0x3a1272f5	0.0005586588
208	0xbc3046a2	-0.010759028
209	0xbdacab86	-0.08431153
210	0x3e0260e9	0.12732281
211	0xbcbe149d	-0.023203189
212	0xbc8ff40d	-0.017572427
213	0xbc4c5eea	-0.012473801
214	0x3df531ff	0.119724266
215	0x3d8e7277	0.06955426
216	0xbe1cf783	-0.15328793
217	0x3e1e935c	0.154859
218	0xbb6d4267	-0.003620291
219	0xbe20a204	-0.15686804
220	0xbcdd1e05	-0.026991853
221	0xbe3137b7	-0.1730641
222	0x3d13c0f4	0.036072686
223	0x3d6d5117	0.05793866
224	0x3d8de63f	0.069286816
225	0xbc81ad00	-0.015829563
226	0x3d69d9af	0.057092365
227	0x3e3a217f	0.1817684
228	0xbdfb2a72	-0.12263955
229	0xbd109007	-0.035293605
230	0x3dd4cba3	0.10390403
231	0x3dbcf55f	0.09226488
232	0x3e235e64	0.15953976
233	0xbc8e6907	-0.017384065
234	0x3cce9c4a	0.025221009
235	0xbc62ed9b	-0.013850595
236	0xbbeb52d2	-0.007181504
237	0x3d8e42ae	0.06946312
238	0x3dbe2632	0.09284629
239	0x3d42a3e6	0.047519587
240	0xbe061b31	-0.1309631
241	0xbcc2674e	-0.0237309
242	0x3b2de35e	0.0026533226
243	0x3db6d694	0.08927646
244	0x3c34eff0	0.011043534
245	0xbd9edd0d	-0.07757006
246	0x3def74cc	0.11692199
247	0x3db69eb0	0.08916986
248	0xbd7bec6c	-0.061504766
249	0xbdf25a4d	-0.1183363
250	0xbc1b492e	-0.009477897
251	0xba39a31e	-0.00070814963
252	0x3e164572	0.14674929
253	0x3de32012	0.11090101
254	0xbe061f47	-0.13097869
255	0x3c09d0b4	0.008411575

conv2.bias f4 [20]
0	0x3cbd693e	0.023121472
1	0xbbe90ace	-0.0071118837
2	0xbbcfd24d	-0.0063422085
3	0x3e66e823	0.2254949
4	0x3dc4dc99	0.09612388
5	0x3d730418	0.059330076
6	0xbd334f3f	-0.043776747
7	0x3e84394d	0.25824967
8	0xbd785867	-0.060631182
9	0xbda45b91	-0.080252774
10	0x3e84d8a8	0.25946546
11	0x3d9f1a39	0.077686734
12	0x3e461732	0.19344786
13	0xbd506ee3	-0.050887
14	0xbdb3f0f3	-0.08786192
15	0x3e81328a	0.2523387
16	0xbe46b432	-0.19404677
17	0xbc071000	-0.008243561
18	0xbbd01cae	-0.006351075
19	0x3d9b12a5	0.075719155
